…
The sparsity of the dataset: 99.99389670773579%
09 Oct 06:35    INFO 
====Testing====
clothing
The number of users: 39387
Average actions of users: 1.0457511361616778
The number of items: 16803
Average actions of items: 2.451288460393977
The number of inters: 41189
The sparsity of the dataset: 99.99377640221293%
09 Oct 06:35    INFO 

=================================


09 Oct 06:35    INFO =========1/4: Parameters:['clcr_weight', 'global_alignment_weight', 'prototype_num', 'ga_gamma', 'clcr_gamma', 'seed']=(0.001, 0.0001, 10240, 0.3, 0.1, 999)=======
09 Oct 06:36    INFO NCL(
  (user_embedding): Embedding(39387, 64)
  (item_embedding): Embedding(23033, 64)
  (clcr_loss): CLCRLossUltra(
    (i2t_map): Linear(in_features=64, out_features=64, bias=False)
    (t2i_map): Linear(in_features=64, out_features=64, bias=False)
    (i2d_map): Linear(in_features=64, out_features=64, bias=False)
    (d2i_map): Linear(in_features=64, out_features=64, bias=False)
    (t2d_map): Linear(in_features=64, out_features=64, bias=False)
    (d2t_map): Linear(in_features=64, out_features=64, bias=False)
  )
  (global_alignment_loss): GlobalAlignmentLoss(
    (feat2code): Linear(in_features=64, out_features=10240, bias=False)
    (ii2code): Linear(in_features=64, out_features=10240, bias=False)
  )
  (image_trs): Linear(in_features=4096, out_features=64, bias=True)
  (text_trs): Linear(in_features=384, out_features=64, bias=True)
  (mf_loss): BPRLoss()
  (reg_loss): EmbLoss()
)
Trainable parameters: 5617026.0
09 Oct 06:36    INFO Loading faiss with AVX2 support.
09 Oct 06:36    INFO Could not load library with AVX2 support due to:
ModuleNotFoundError("No module named 'faiss.swigfaiss_avx2'")
09 Oct 06:36    INFO Loading faiss.
09 Oct 06:36    INFO Successfully loaded faiss.
WARNING clustering 23033 points to 1000 centroids: please provide at least 39000 training points
…
